…
    framework: torch
    is_jupyter_run: false
    is_kaggle_kernel: false
    python_version: 3.10.12
    start_time: 1736228640
    t:
      1:
      - 1
      - 55
      2:
      - 1
      - 55
      3:
      - 1
      - 2
      - 3
      - 16
      - 22
      - 35
      4: 3.10.12
      5: 0.12.21
      8:
      - 5
action_noise:
  desc: null
  value: NormalActionNoise
action_space:
  desc: null
  value: Box(-100.0, 100.0, (7,), float32)
actor:
  desc: null
  value: "Actor(\n  (features_extractor): FlattenExtractor(\n    (flatten): Flatten(start_dim=1,\
    \ end_dim=-1)\n  )\n  (mu): Sequential(\n    (0): Linear(in_features=30, out_features=256,\
    \ bias=True)\n    (1): ELU(alpha=1.0)\n    (2): Linear(in_features=256, out_features=256,\
    \ bias=True)\n    (3): ELU(alpha=1.0)\n    (4): Linear(in_features=256, out_features=7,\
    \ bias=True)\n    (5): Tanh()\n  )\n)"
actor_batch_norm_stats:
  desc: null
  value: '[]'
actor_batch_norm_stats_target:
  desc: null
  value: '[]'
actor_target:
  desc: null
  value: "Actor(\n  (features_extractor): FlattenExtractor(\n    (flatten): Flatten(start_dim=1,\
    \ end_dim=-1)\n  )\n  (mu): Sequential(\n    (0): Linear(in_features=30, out_features=256,\
    \ bias=True)\n    (1): ELU(alpha=1.0)\n    (2): Linear(in_features=256, out_features=256,\
    \ bias=True)\n    (3): ELU(alpha=1.0)\n    (4): Linear(in_features=256, out_features=7,\
    \ bias=True)\n    (5): Tanh()\n  )\n)"
algo:
  desc: null
  value: TD3
batch_size:
  desc: null
  value: 256
buffer_size:
  desc: null
  value: 1000000
clip_obs:
  desc: null
  value: 50
critic:
  desc: null
  value: "ContinuousCritic(\n  (features_extractor): FlattenExtractor(\n    (flatten):\
    \ Flatten(start_dim=1, end_dim=-1)\n  )\n  (qf0): Sequential(\n    (0): Linear(in_features=37,\
    \ out_features=256, bias=True)\n    (1): ELU(alpha=1.0)\n    (2): Linear(in_features=256,\
    \ out_features=256, bias=True)\n    (3): ELU(alpha=1.0)\n    (4): Linear(in_features=256,\
    \ out_features=1, bias=True)\n  )\n  (qf1): Sequential(\n    (0): Linear(in_features=37,\
    \ out_features=256, bias=True)\n    (1): ELU(alpha=1.0)\n    (2): Linear(in_features=256,\
    \ out_features=256, bias=True)\n    (3): ELU(alpha=1.0)\n    (4): Linear(in_features=256,\
    \ out_features=1, bias=True)\n  )\n)"
critic_batch_norm_stats:
  desc: null
  value: '[]'
critic_batch_norm_stats_target:
  desc: null
  value: '[]'
critic_target:
  desc: null
  value: "ContinuousCritic(\n  (features_extractor): FlattenExtractor(\n    (flatten):\
    \ Flatten(start_dim=1, end_dim=-1)\n  )\n  (qf0): Sequential(\n    (0): Linear(in_features=37,\
    \ out_features=256, bias=True)\n    (1): ELU(alpha=1.0)\n    (2): Linear(in_features=256,\
    \ out_features=256, bias=True)\n    (3): ELU(alpha=1.0)\n    (4): Linear(in_features=256,\
    \ out_features=1, bias=True)\n  )\n  (qf1): Sequential(\n    (0): Linear(in_features=37,\
    \ out_features=256, bias=True)\n    (1): ELU(alpha=1.0)\n    (2): Linear(in_features=256,\
    \ out_features=256, bias=True)\n    (3): ELU(alpha=1.0)\n    (4): Linear(in_features=256,\
    \ out_features=1, bias=True)\n  )\n)"
device:
  desc: null
  value: cuda:0
env:
  desc: null
  value: <Sb3VecEnvWrapper<OrderEnforcing<ManagerBasedRLEnv<UR5e-Lift-Cube-IK>>>>
ep_info_buffer:
  desc: null
  value: deque([], maxlen=100)
ep_success_buffer:
  desc: null
  value: deque([], maxlen=100)
gamma:
  desc: null
  value: 0.95
gradient_steps:
  desc: null
  value: 4
learning_rate:
…
