…
float32)', 'action_space': 'Box(-100.0, 100.0, (7,), float32)', 'n_envs': 4096, 'optimize_memory_usage': 'False', 'replay_buffer': '<stable_baselines3.common.buffers.ReplayBuffer object at 0x71e493568970>', 'replay_buffer_class': "<class 'stable_baselines3.common.buffers.ReplayBuffer'>", 'replay_buffer_kwargs': '{}', '_episode_storage': 'None', 'use_sde_at_warmup': 'False', 'lr_schedule': '<function get_schedule_fn.<locals>.<lambda> at 0x71e4935b0160>', 'actor': 'Actor(\n  (features_extractor): FlattenExtractor(\n    (flatten): Flatten(start_dim=1, end_dim=-1)\n  )\n  (mu): Sequential(\n    (0): Linear(in_features=30, out_features=256, bias=True)\n    (1): ELU(alpha=1.0)\n    (2): Linear(in_features=256, out_features=256, bias=True)\n    (3): ELU(alpha=1.0)\n    (4): Linear(in_features=256, out_features=7, bias=True)\n    (5): Tanh()\n  )\n)', 'actor_target': 'Actor(\n  (features_extractor): FlattenExtractor(\n    (flatten): Flatten(start_dim=1, end_dim=-1)\n  )\n  (mu): Sequential(\n    (0): Linear(in_features=30, out_features=256, bias=True)\n    (1): ELU(alpha=1.0)\n    (2): Linear(in_features=256, out_features=256, bias=True)\n    (3): ELU(alpha=1.0)\n    (4): Linear(in_features=256, out_features=7, bias=True)\n    (5): Tanh()\n  )\n)', 'critic': 'ContinuousCritic(\n  (features_extractor): FlattenExtractor(\n    (flatten): Flatten(start_dim=1, end_dim=-1)\n  )\n  (qf0): Sequential(\n    (0): Linear(in_features=37, out_features=256, bias=True)\n    (1): ELU(alpha=1.0)\n    (2): Linear(in_features=256, out_features=256, bias=True)\n    (3): ELU(alpha=1.0)\n    (4): Linear(in_features=256, out_features=1, bias=True)\n  )\n  (qf1): Sequential(\n    (0): Linear(in_features=37, out_features=256, bias=True)\n    (1): ELU(alpha=1.0)\n    (2): Linear(in_features=256, out_features=256, bias=True)\n    (3): ELU(alpha=1.0)\n    (4): Linear(in_features=256, out_features=1, bias=True)\n  )\n)', 'critic_target': 'ContinuousCritic(\n  (features_extractor): FlattenExtractor(\n    (flatten): Flatten(start_dim=1, end_dim=-1)\n  )\n  (qf0): Sequential(\n    (0): Linear(in_features=37, out_features=256, bias=True)\n    (1): ELU(alpha=1.0)\n    (2): Linear(in_features=256, out_features=256, bias=True)\n    (3): ELU(alpha=1.0)\n    (4): Linear(in_features=256, out_features=1, bias=True)\n  )\n  (qf1): Sequential(\n    (0): Linear(in_features=37, out_features=256, bias=True)\n    (1): ELU(alpha=1.0)\n    (2): Linear(in_features=256, out_features=256, bias=True)\n    (3): ELU(alpha=1.0)\n    (4): Linear(in_features=256, out_features=1, bias=True)\n  )\n)', 'actor_batch_norm_stats': '[]', 'critic_batch_norm_stats': '[]', 'actor_batch_norm_stats_target': '[]', 'critic_batch_norm_stats_target': '[]', '_logger': '<stable_baselines3.common.logger.Logger object at 0x71e4853ed540>'}
2025-01-07 10:22:24,998 INFO    MainThread:1705255 [sb3.py:save_model():149] Saving model checkpoint to models/yh1yv5bu/model.zip
…
